Fri, 12 May 2023 22:26:55 INFO >>>The net is:
Fri, 12 May 2023 22:26:55 INFO BAN_Model(
  (w_emb): WordEmbedding(
    (emb): Embedding(1178, 300, padding_idx=1177)
    (emb_): Embedding(1178, 300, padding_idx=1177)
    (dropout): Dropout(p=0.0, inplace=False)
  )
  (q_emb): QuestionEmbedding(
    (rnn): GRU(600, 1024, batch_first=True)
  )
  (close_att): BiAttention(
    (logits): BCNet(
      (v_net): FCNet(
        (main): Sequential(
          (0): Dropout(p=0.2, inplace=False)
          (1): Linear(in_features=704, out_features=3072, bias=True)
          (2): ReLU()
        )
      )
      (q_net): FCNet(
        (main): Sequential(
          (0): Dropout(p=0.2, inplace=False)
          (1): Linear(in_features=1024, out_features=3072, bias=True)
          (2): ReLU()
        )
      )
      (dropout): Dropout(p=0.5, inplace=False)
      (p_net): AvgPool1d(kernel_size=(3,), stride=(3,), padding=(0,))
    )
  )
  (close_resnet): BiResNet(
    (b_net): ModuleList(
      (0-9): 10 x BCNet(
        (v_net): FCNet(
          (main): Sequential(
            (0): Dropout(p=0.2, inplace=False)
            (1): Linear(in_features=704, out_features=1024, bias=True)
            (2): ReLU()
          )
        )
        (q_net): FCNet(
          (main): Sequential(
            (0): Dropout(p=0.2, inplace=False)
            (1): Linear(in_features=1024, out_features=1024, bias=True)
            (2): ReLU()
          )
        )
        (dropout): Dropout(p=0.5, inplace=False)
      )
    )
    (q_prj): ModuleList(
      (0-9): 10 x FCNet(
        (main): Sequential(
          (0): Dropout(p=0.2, inplace=False)
          (1): Linear(in_features=1024, out_features=1024, bias=True)
        )
      )
    )
    (c_prj): ModuleList()
  )
  (close_classifier): SimpleClassifier(
    (main): Sequential(
      (0): Linear(in_features=1024, out_features=2048, bias=True)
      (1): ReLU()
      (2): Dropout(p=0.5, inplace=False)
      (3): Linear(in_features=2048, out_features=56, bias=True)
    )
  )
  (open_att): BiAttention(
    (logits): BCNet(
      (v_net): FCNet(
        (main): Sequential(
          (0): Dropout(p=0.2, inplace=False)
          (1): Linear(in_features=704, out_features=3072, bias=True)
          (2): ReLU()
        )
      )
      (q_net): FCNet(
        (main): Sequential(
          (0): Dropout(p=0.2, inplace=False)
          (1): Linear(in_features=1024, out_features=3072, bias=True)
          (2): ReLU()
        )
      )
      (dropout): Dropout(p=0.5, inplace=False)
      (p_net): AvgPool1d(kernel_size=(3,), stride=(3,), padding=(0,))
    )
  )
  (open_resnet): BiResNet(
    (b_net): ModuleList(
      (0-9): 10 x BCNet(
        (v_net): FCNet(
          (main): Sequential(
            (0): Dropout(p=0.2, inplace=False)
            (1): Linear(in_features=704, out_features=1024, bias=True)
            (2): ReLU()
          )
        )
        (q_net): FCNet(
          (main): Sequential(
            (0): Dropout(p=0.2, inplace=False)
            (1): Linear(in_features=1024, out_features=1024, bias=True)
            (2): ReLU()
          )
        )
        (dropout): Dropout(p=0.5, inplace=False)
      )
    )
    (q_prj): ModuleList(
      (0-9): 10 x FCNet(
        (main): Sequential(
          (0): Dropout(p=0.2, inplace=False)
          (1): Linear(in_features=1024, out_features=1024, bias=True)
        )
      )
    )
    (c_prj): ModuleList()
  )
  (open_classifier): SimpleClassifier(
    (main): Sequential(
      (0): Linear(in_features=1024, out_features=2048, bias=True)
      (1): ReLU()
      (2): Dropout(p=0.5, inplace=False)
      (3): Linear(in_features=2048, out_features=431, bias=True)
    )
  )
  (bbn_classifier): SimpleClassifier(
    (main): Sequential(
      (0): Linear(in_features=2048, out_features=3072, bias=True)
      (1): ReLU()
      (2): Dropout(p=0.5, inplace=False)
      (3): Linear(in_features=3072, out_features=487, bias=True)
    )
  )
  (typeatt): typeAttention(
    (w_emb): WordEmbedding(
      (emb): Embedding(1178, 300, padding_idx=1177)
      (dropout): Dropout(p=0.0, inplace=False)
    )
    (q_emb): QuestionEmbedding(
      (rnn): GRU(300, 1024, batch_first=True)
    )
    (q_final): QuestionAttention(
      (tanh_gate): Linear(in_features=1324, out_features=1024, bias=True)
      (sigmoid_gate): Linear(in_features=1324, out_features=1024, bias=True)
      (attn): Linear(in_features=1024, out_features=1, bias=True)
    )
    (f_fc1): Linear(in_features=1024, out_features=2048, bias=True)
    (f_fc2): Linear(in_features=2048, out_features=1024, bias=True)
    (f_fc3): Linear(in_features=1024, out_features=1024, bias=True)
  )
  (ae): Auto_Encoder_Model(
    (conv1): Conv2d(1, 64, kernel_size=(3, 3), stride=(1, 1), padding=(1, 1))
    (max_pool1): MaxPool2d(kernel_size=2, stride=2, padding=0, dilation=1, ceil_mode=False)
    (conv2): Conv2d(64, 32, kernel_size=(3, 3), stride=(1, 1), padding=(1, 1))
    (max_pool2): MaxPool2d(kernel_size=2, stride=2, padding=0, dilation=1, ceil_mode=False)
    (conv3): Conv2d(32, 16, kernel_size=(3, 3), stride=(1, 1), padding=(1, 1))
    (tran_conv1): ConvTranspose2d(16, 32, kernel_size=(3, 3), stride=(2, 2), padding=(1, 1), output_padding=(1, 1))
    (conv4): Conv2d(32, 32, kernel_size=(3, 3), stride=(1, 1), padding=(1, 1))
    (tran_conv2): ConvTranspose2d(32, 64, kernel_size=(3, 3), stride=(2, 2), padding=(1, 1), output_padding=(1, 1))
    (conv5): Conv2d(64, 1, kernel_size=(3, 3), stride=(1, 1), padding=(1, 1))
  )
  (convert): Linear(in_features=16384, out_features=64, bias=True)
  (clip): CLIP(
    (visual): ModifiedResNet(
      (conv1): Conv2d(3, 40, kernel_size=(3, 3), stride=(2, 2), padding=(1, 1), bias=False)
      (bn1): BatchNorm2d(40, eps=1e-05, momentum=0.1, affine=True, track_running_stats=True)
      (relu1): ReLU(inplace=True)
      (conv2): Conv2d(40, 40, kernel_size=(3, 3), stride=(1, 1), padding=(1, 1), bias=False)
      (bn2): BatchNorm2d(40, eps=1e-05, momentum=0.1, affine=True, track_running_stats=True)
      (relu2): ReLU(inplace=True)
      (conv3): Conv2d(40, 80, kernel_size=(3, 3), stride=(1, 1), padding=(1, 1), bias=False)
      (bn3): BatchNorm2d(80, eps=1e-05, momentum=0.1, affine=True, track_running_stats=True)
      (relu3): ReLU(inplace=True)
      (avgpool): AvgPool2d(kernel_size=2, stride=2, padding=0)
      (layer1): Sequential(
        (0): Bottleneck(
          (conv1): Conv2d(80, 80, kernel_size=(1, 1), stride=(1, 1), bias=False)
          (bn1): BatchNorm2d(80, eps=1e-05, momentum=0.1, affine=True, track_running_stats=True)
          (relu1): ReLU(inplace=True)
          (conv2): Conv2d(80, 80, kernel_size=(3, 3), stride=(1, 1), padding=(1, 1), bias=False)
          (bn2): BatchNorm2d(80, eps=1e-05, momentum=0.1, affine=True, track_running_stats=True)
          (relu2): ReLU(inplace=True)
          (avgpool): Identity()
          (conv3): Conv2d(80, 320, kernel_size=(1, 1), stride=(1, 1), bias=False)
          (bn3): BatchNorm2d(320, eps=1e-05, momentum=0.1, affine=True, track_running_stats=True)
          (relu3): ReLU(inplace=True)
          (downsample): Sequential(
            (-1): AvgPool2d(kernel_size=1, stride=1, padding=0)
            (0): Conv2d(80, 320, kernel_size=(1, 1), stride=(1, 1), bias=False)
            (1): BatchNorm2d(320, eps=1e-05, momentum=0.1, affine=True, track_running_stats=True)
          )
        )
        (1): Bottleneck(
          (conv1): Conv2d(320, 80, kernel_size=(1, 1), stride=(1, 1), bias=False)
          (bn1): BatchNorm2d(80, eps=1e-05, momentum=0.1, affine=True, track_running_stats=True)
          (relu1): ReLU(inplace=True)
          (conv2): Conv2d(80, 80, kernel_size=(3, 3), stride=(1, 1), padding=(1, 1), bias=False)
          (bn2): BatchNorm2d(80, eps=1e-05, momentum=0.1, affine=True, track_running_stats=True)
          (relu2): ReLU(inplace=True)
          (avgpool): Identity()
          (conv3): Conv2d(80, 320, kernel_size=(1, 1), stride=(1, 1), bias=False)
          (bn3): BatchNorm2d(320, eps=1e-05, momentum=0.1, affine=True, track_running_stats=True)
          (relu3): ReLU(inplace=True)
        )
        (2): Bottleneck(
          (conv1): Conv2d(320, 80, kernel_size=(1, 1), stride=(1, 1), bias=False)
          (bn1): BatchNorm2d(80, eps=1e-05, momentum=0.1, affine=True, track_running_stats=True)
          (relu1): ReLU(inplace=True)
          (conv2): Conv2d(80, 80, kernel_size=(3, 3), stride=(1, 1), padding=(1, 1), bias=False)
          (bn2): BatchNorm2d(80, eps=1e-05, momentum=0.1, affine=True, track_running_stats=True)
          (relu2): ReLU(inplace=True)
          (avgpool): Identity()
          (conv3): Conv2d(80, 320, kernel_size=(1, 1), stride=(1, 1), bias=False)
          (bn3): BatchNorm2d(320, eps=1e-05, momentum=0.1, affine=True, track_running_stats=True)
          (relu3): ReLU(inplace=True)
        )
        (3): Bottleneck(
          (conv1): Conv2d(320, 80, kernel_size=(1, 1), stride=(1, 1), bias=False)
          (bn1): BatchNorm2d(80, eps=1e-05, momentum=0.1, affine=True, track_running_stats=True)
          (relu1): ReLU(inplace=True)
          (conv2): Conv2d(80, 80, kernel_size=(3, 3), stride=(1, 1), padding=(1, 1), bias=False)
          (bn2): BatchNorm2d(80, eps=1e-05, momentum=0.1, affine=True, track_running_stats=True)
          (relu2): ReLU(inplace=True)
          (avgpool): Identity()
          (conv3): Conv2d(80, 320, kernel_size=(1, 1), stride=(1, 1), bias=False)
          (bn3): BatchNorm2d(320, eps=1e-05, momentum=0.1, affine=True, track_running_stats=True)
          (relu3): ReLU(inplace=True)
        )
      )
      (layer2): Sequential(
        (0): Bottleneck(
          (conv1): Conv2d(320, 160, kernel_size=(1, 1), stride=(1, 1), bias=False)
          (bn1): BatchNorm2d(160, eps=1e-05, momentum=0.1, affine=True, track_running_stats=True)
          (relu1): ReLU(inplace=True)
          (conv2): Conv2d(160, 160, kernel_size=(3, 3), stride=(1, 1), padding=(1, 1), bias=False)
          (bn2): BatchNorm2d(160, eps=1e-05, momentum=0.1, affine=True, track_running_stats=True)
          (relu2): ReLU(inplace=True)
          (avgpool): AvgPool2d(kernel_size=2, stride=2, padding=0)
          (conv3): Conv2d(160, 640, kernel_size=(1, 1), stride=(1, 1), bias=False)
          (bn3): BatchNorm2d(640, eps=1e-05, momentum=0.1, affine=True, track_running_stats=True)
          (relu3): ReLU(inplace=True)
          (downsample): Sequential(
            (-1): AvgPool2d(kernel_size=2, stride=2, padding=0)
            (0): Conv2d(320, 640, kernel_size=(1, 1), stride=(1, 1), bias=False)
            (1): BatchNorm2d(640, eps=1e-05, momentum=0.1, affine=True, track_running_stats=True)
          )
        )
        (1): Bottleneck(
          (conv1): Conv2d(640, 160, kernel_size=(1, 1), stride=(1, 1), bias=False)
          (bn1): BatchNorm2d(160, eps=1e-05, momentum=0.1, affine=True, track_running_stats=True)
          (relu1): ReLU(inplace=True)
          (conv2): Conv2d(160, 160, kernel_size=(3, 3), stride=(1, 1), padding=(1, 1), bias=False)
          (bn2): BatchNorm2d(160, eps=1e-05, momentum=0.1, affine=True, track_running_stats=True)
          (relu2): ReLU(inplace=True)
          (avgpool): Identity()
          (conv3): Conv2d(160, 640, kernel_size=(1, 1), stride=(1, 1), bias=False)
          (bn3): BatchNorm2d(640, eps=1e-05, momentum=0.1, affine=True, track_running_stats=True)
          (relu3): ReLU(inplace=True)
        )
        (2): Bottleneck(
          (conv1): Conv2d(640, 160, kernel_size=(1, 1), stride=(1, 1), bias=False)
          (bn1): BatchNorm2d(160, eps=1e-05, momentum=0.1, affine=True, track_running_stats=True)
          (relu1): ReLU(inplace=True)
          (conv2): Conv2d(160, 160, kernel_size=(3, 3), stride=(1, 1), padding=(1, 1), bias=False)
          (bn2): BatchNorm2d(160, eps=1e-05, momentum=0.1, affine=True, track_running_stats=True)
          (relu2): ReLU(inplace=True)
          (avgpool): Identity()
          (conv3): Conv2d(160, 640, kernel_size=(1, 1), stride=(1, 1), bias=False)
          (bn3): BatchNorm2d(640, eps=1e-05, momentum=0.1, affine=True, track_running_stats=True)
          (relu3): ReLU(inplace=True)
        )
        (3): Bottleneck(
          (conv1): Conv2d(640, 160, kernel_size=(1, 1), stride=(1, 1), bias=False)
          (bn1): BatchNorm2d(160, eps=1e-05, momentum=0.1, affine=True, track_running_stats=True)
          (relu1): ReLU(inplace=True)
          (conv2): Conv2d(160, 160, kernel_size=(3, 3), stride=(1, 1), padding=(1, 1), bias=False)
          (bn2): BatchNorm2d(160, eps=1e-05, momentum=0.1, affine=True, track_running_stats=True)
          (relu2): ReLU(inplace=True)
          (avgpool): Identity()
          (conv3): Conv2d(160, 640, kernel_size=(1, 1), stride=(1, 1), bias=False)
          (bn3): BatchNorm2d(640, eps=1e-05, momentum=0.1, affine=True, track_running_stats=True)
          (relu3): ReLU(inplace=True)
        )
        (4): Bottleneck(
          (conv1): Conv2d(640, 160, kernel_size=(1, 1), stride=(1, 1), bias=False)
          (bn1): BatchNorm2d(160, eps=1e-05, momentum=0.1, affine=True, track_running_stats=True)
          (relu1): ReLU(inplace=True)
          (conv2): Conv2d(160, 160, kernel_size=(3, 3), stride=(1, 1), padding=(1, 1), bias=False)
          (bn2): BatchNorm2d(160, eps=1e-05, momentum=0.1, affine=True, track_running_stats=True)
          (relu2): ReLU(inplace=True)
          (avgpool): Identity()
          (conv3): Conv2d(160, 640, kernel_size=(1, 1), stride=(1, 1), bias=False)
          (bn3): BatchNorm2d(640, eps=1e-05, momentum=0.1, affine=True, track_running_stats=True)
          (relu3): ReLU(inplace=True)
        )
        (5): Bottleneck(
          (conv1): Conv2d(640, 160, kernel_size=(1, 1), stride=(1, 1), bias=False)
          (bn1): BatchNorm2d(160, eps=1e-05, momentum=0.1, affine=True, track_running_stats=True)
          (relu1): ReLU(inplace=True)
          (conv2): Conv2d(160, 160, kernel_size=(3, 3), stride=(1, 1), padding=(1, 1), bias=False)
          (bn2): BatchNorm2d(160, eps=1e-05, momentum=0.1, affine=True, track_running_stats=True)
          (relu2): ReLU(inplace=True)
          (avgpool): Identity()
          (conv3): Conv2d(160, 640, kernel_size=(1, 1), stride=(1, 1), bias=False)
          (bn3): BatchNorm2d(640, eps=1e-05, momentum=0.1, affine=True, track_running_stats=True)
          (relu3): ReLU(inplace=True)
        )
      )
      (layer3): Sequential(
        (0): Bottleneck(
          (conv1): Conv2d(640, 320, kernel_size=(1, 1), stride=(1, 1), bias=False)
          (bn1): BatchNorm2d(320, eps=1e-05, momentum=0.1, affine=True, track_running_stats=True)
          (relu1): ReLU(inplace=True)
          (conv2): Conv2d(320, 320, kernel_size=(3, 3), stride=(1, 1), padding=(1, 1), bias=False)
          (bn2): BatchNorm2d(320, eps=1e-05, momentum=0.1, affine=True, track_running_stats=True)
          (relu2): ReLU(inplace=True)
          (avgpool): AvgPool2d(kernel_size=2, stride=2, padding=0)
          (conv3): Conv2d(320, 1280, kernel_size=(1, 1), stride=(1, 1), bias=False)
          (bn3): BatchNorm2d(1280, eps=1e-05, momentum=0.1, affine=True, track_running_stats=True)
          (relu3): ReLU(inplace=True)
          (downsample): Sequential(
            (-1): AvgPool2d(kernel_size=2, stride=2, padding=0)
            (0): Conv2d(640, 1280, kernel_size=(1, 1), stride=(1, 1), bias=False)
            (1): BatchNorm2d(1280, eps=1e-05, momentum=0.1, affine=True, track_running_stats=True)
          )
        )
        (1): Bottleneck(
          (conv1): Conv2d(1280, 320, kernel_size=(1, 1), stride=(1, 1), bias=False)
          (bn1): BatchNorm2d(320, eps=1e-05, momentum=0.1, affine=True, track_running_stats=True)
          (relu1): ReLU(inplace=True)
          (conv2): Conv2d(320, 320, kernel_size=(3, 3), stride=(1, 1), padding=(1, 1), bias=False)
          (bn2): BatchNorm2d(320, eps=1e-05, momentum=0.1, affine=True, track_running_stats=True)
          (relu2): ReLU(inplace=True)
          (avgpool): Identity()
          (conv3): Conv2d(320, 1280, kernel_size=(1, 1), stride=(1, 1), bias=False)
          (bn3): BatchNorm2d(1280, eps=1e-05, momentum=0.1, affine=True, track_running_stats=True)
          (relu3): ReLU(inplace=True)
        )
        (2): Bottleneck(
          (conv1): Conv2d(1280, 320, kernel_size=(1, 1), stride=(1, 1), bias=False)
          (bn1): BatchNorm2d(320, eps=1e-05, momentum=0.1, affine=True, track_running_stats=True)
          (relu1): ReLU(inplace=True)
          (conv2): Conv2d(320, 320, kernel_size=(3, 3), stride=(1, 1), padding=(1, 1), bias=False)
          (bn2): BatchNorm2d(320, eps=1e-05, momentum=0.1, affine=True, track_running_stats=True)
          (relu2): ReLU(inplace=True)
          (avgpool): Identity()
          (conv3): Conv2d(320, 1280, kernel_size=(1, 1), stride=(1, 1), bias=False)
          (bn3): BatchNorm2d(1280, eps=1e-05, momentum=0.1, affine=True, track_running_stats=True)
          (relu3): ReLU(inplace=True)
        )
        (3): Bottleneck(
          (conv1): Conv2d(1280, 320, kernel_size=(1, 1), stride=(1, 1), bias=False)
          (bn1): BatchNorm2d(320, eps=1e-05, momentum=0.1, affine=True, track_running_stats=True)
          (relu1): ReLU(inplace=True)
          (conv2): Conv2d(320, 320, kernel_size=(3, 3), stride=(1, 1), padding=(1, 1), bias=False)
          (bn2): BatchNorm2d(320, eps=1e-05, momentum=0.1, affine=True, track_running_stats=True)
          (relu2): ReLU(inplace=True)
          (avgpool): Identity()
          (conv3): Conv2d(320, 1280, kernel_size=(1, 1), stride=(1, 1), bias=False)
          (bn3): BatchNorm2d(1280, eps=1e-05, momentum=0.1, affine=True, track_running_stats=True)
          (relu3): ReLU(inplace=True)
        )
        (4): Bottleneck(
          (conv1): Conv2d(1280, 320, kernel_size=(1, 1), stride=(1, 1), bias=False)
          (bn1): BatchNorm2d(320, eps=1e-05, momentum=0.1, affine=True, track_running_stats=True)
          (relu1): ReLU(inplace=True)
          (conv2): Conv2d(320, 320, kernel_size=(3, 3), stride=(1, 1), padding=(1, 1), bias=False)
          (bn2): BatchNorm2d(320, eps=1e-05, momentum=0.1, affine=True, track_running_stats=True)
          (relu2): ReLU(inplace=True)
          (avgpool): Identity()
          (conv3): Conv2d(320, 1280, kernel_size=(1, 1), stride=(1, 1), bias=False)
          (bn3): BatchNorm2d(1280, eps=1e-05, momentum=0.1, affine=True, track_running_stats=True)
          (relu3): ReLU(inplace=True)
        )
        (5): Bottleneck(
          (conv1): Conv2d(1280, 320, kernel_size=(1, 1), stride=(1, 1), bias=False)
          (bn1): BatchNorm2d(320, eps=1e-05, momentum=0.1, affine=True, track_running_stats=True)
          (relu1): ReLU(inplace=True)
          (conv2): Conv2d(320, 320, kernel_size=(3, 3), stride=(1, 1), padding=(1, 1), bias=False)
          (bn2): BatchNorm2d(320, eps=1e-05, momentum=0.1, affine=True, track_running_stats=True)
          (relu2): ReLU(inplace=True)
          (avgpool): Identity()
          (conv3): Conv2d(320, 1280, kernel_size=(1, 1), stride=(1, 1), bias=False)
          (bn3): BatchNorm2d(1280, eps=1e-05, momentum=0.1, affine=True, track_running_stats=True)
          (relu3): ReLU(inplace=True)
        )
        (6): Bottleneck(
          (conv1): Conv2d(1280, 320, kernel_size=(1, 1), stride=(1, 1), bias=False)
          (bn1): BatchNorm2d(320, eps=1e-05, momentum=0.1, affine=True, track_running_stats=True)
          (relu1): ReLU(inplace=True)
          (conv2): Conv2d(320, 320, kernel_size=(3, 3), stride=(1, 1), padding=(1, 1), bias=False)
          (bn2): BatchNorm2d(320, eps=1e-05, momentum=0.1, affine=True, track_running_stats=True)
          (relu2): ReLU(inplace=True)
          (avgpool): Identity()
          (conv3): Conv2d(320, 1280, kernel_size=(1, 1), stride=(1, 1), bias=False)
          (bn3): BatchNorm2d(1280, eps=1e-05, momentum=0.1, affine=True, track_running_stats=True)
          (relu3): ReLU(inplace=True)
        )
        (7): Bottleneck(
          (conv1): Conv2d(1280, 320, kernel_size=(1, 1), stride=(1, 1), bias=False)
          (bn1): BatchNorm2d(320, eps=1e-05, momentum=0.1, affine=True, track_running_stats=True)
          (relu1): ReLU(inplace=True)
          (conv2): Conv2d(320, 320, kernel_size=(3, 3), stride=(1, 1), padding=(1, 1), bias=False)
          (bn2): BatchNorm2d(320, eps=1e-05, momentum=0.1, affine=True, track_running_stats=True)
          (relu2): ReLU(inplace=True)
          (avgpool): Identity()
          (conv3): Conv2d(320, 1280, kernel_size=(1, 1), stride=(1, 1), bias=False)
          (bn3): BatchNorm2d(1280, eps=1e-05, momentum=0.1, affine=True, track_running_stats=True)
          (relu3): ReLU(inplace=True)
        )
        (8): Bottleneck(
          (conv1): Conv2d(1280, 320, kernel_size=(1, 1), stride=(1, 1), bias=False)
          (bn1): BatchNorm2d(320, eps=1e-05, momentum=0.1, affine=True, track_running_stats=True)
          (relu1): ReLU(inplace=True)
          (conv2): Conv2d(320, 320, kernel_size=(3, 3), stride=(1, 1), padding=(1, 1), bias=False)
          (bn2): BatchNorm2d(320, eps=1e-05, momentum=0.1, affine=True, track_running_stats=True)
          (relu2): ReLU(inplace=True)
          (avgpool): Identity()
          (conv3): Conv2d(320, 1280, kernel_size=(1, 1), stride=(1, 1), bias=False)
          (bn3): BatchNorm2d(1280, eps=1e-05, momentum=0.1, affine=True, track_running_stats=True)
          (relu3): ReLU(inplace=True)
        )
        (9): Bottleneck(
          (conv1): Conv2d(1280, 320, kernel_size=(1, 1), stride=(1, 1), bias=False)
          (bn1): BatchNorm2d(320, eps=1e-05, momentum=0.1, affine=True, track_running_stats=True)
          (relu1): ReLU(inplace=True)
          (conv2): Conv2d(320, 320, kernel_size=(3, 3), stride=(1, 1), padding=(1, 1), bias=False)
          (bn2): BatchNorm2d(320, eps=1e-05, momentum=0.1, affine=True, track_running_stats=True)
          (relu2): ReLU(inplace=True)
          (avgpool): Identity()
          (conv3): Conv2d(320, 1280, kernel_size=(1, 1), stride=(1, 1), bias=False)
          (bn3): BatchNorm2d(1280, eps=1e-05, momentum=0.1, affine=True, track_running_stats=True)
          (relu3): ReLU(inplace=True)
        )
      )
      (layer4): Sequential(
        (0): Bottleneck(
          (conv1): Conv2d(1280, 640, kernel_size=(1, 1), stride=(1, 1), bias=False)
          (bn1): BatchNorm2d(640, eps=1e-05, momentum=0.1, affine=True, track_running_stats=True)
          (relu1): ReLU(inplace=True)
          (conv2): Conv2d(640, 640, kernel_size=(3, 3), stride=(1, 1), padding=(1, 1), bias=False)
          (bn2): BatchNorm2d(640, eps=1e-05, momentum=0.1, affine=True, track_running_stats=True)
          (relu2): ReLU(inplace=True)
          (avgpool): AvgPool2d(kernel_size=2, stride=2, padding=0)
          (conv3): Conv2d(640, 2560, kernel_size=(1, 1), stride=(1, 1), bias=False)
          (bn3): BatchNorm2d(2560, eps=1e-05, momentum=0.1, affine=True, track_running_stats=True)
          (relu3): ReLU(inplace=True)
          (downsample): Sequential(
            (-1): AvgPool2d(kernel_size=2, stride=2, padding=0)
            (0): Conv2d(1280, 2560, kernel_size=(1, 1), stride=(1, 1), bias=False)
            (1): BatchNorm2d(2560, eps=1e-05, momentum=0.1, affine=True, track_running_stats=True)
          )
        )
        (1): Bottleneck(
          (conv1): Conv2d(2560, 640, kernel_size=(1, 1), stride=(1, 1), bias=False)
          (bn1): BatchNorm2d(640, eps=1e-05, momentum=0.1, affine=True, track_running_stats=True)
          (relu1): ReLU(inplace=True)
          (conv2): Conv2d(640, 640, kernel_size=(3, 3), stride=(1, 1), padding=(1, 1), bias=False)
          (bn2): BatchNorm2d(640, eps=1e-05, momentum=0.1, affine=True, track_running_stats=True)
          (relu2): ReLU(inplace=True)
          (avgpool): Identity()
          (conv3): Conv2d(640, 2560, kernel_size=(1, 1), stride=(1, 1), bias=False)
          (bn3): BatchNorm2d(2560, eps=1e-05, momentum=0.1, affine=True, track_running_stats=True)
          (relu3): ReLU(inplace=True)
        )
        (2): Bottleneck(
          (conv1): Conv2d(2560, 640, kernel_size=(1, 1), stride=(1, 1), bias=False)
          (bn1): BatchNorm2d(640, eps=1e-05, momentum=0.1, affine=True, track_running_stats=True)
          (relu1): ReLU(inplace=True)
          (conv2): Conv2d(640, 640, kernel_size=(3, 3), stride=(1, 1), padding=(1, 1), bias=False)
          (bn2): BatchNorm2d(640, eps=1e-05, momentum=0.1, affine=True, track_running_stats=True)
          (relu2): ReLU(inplace=True)
          (avgpool): Identity()
          (conv3): Conv2d(640, 2560, kernel_size=(1, 1), stride=(1, 1), bias=False)
          (bn3): BatchNorm2d(2560, eps=1e-05, momentum=0.1, affine=True, track_running_stats=True)
          (relu3): ReLU(inplace=True)
        )
        (3): Bottleneck(
          (conv1): Conv2d(2560, 640, kernel_size=(1, 1), stride=(1, 1), bias=False)
          (bn1): BatchNorm2d(640, eps=1e-05, momentum=0.1, affine=True, track_running_stats=True)
          (relu1): ReLU(inplace=True)
          (conv2): Conv2d(640, 640, kernel_size=(3, 3), stride=(1, 1), padding=(1, 1), bias=False)
          (bn2): BatchNorm2d(640, eps=1e-05, momentum=0.1, affine=True, track_running_stats=True)
          (relu2): ReLU(inplace=True)
          (avgpool): Identity()
          (conv3): Conv2d(640, 2560, kernel_size=(1, 1), stride=(1, 1), bias=False)
          (bn3): BatchNorm2d(2560, eps=1e-05, momentum=0.1, affine=True, track_running_stats=True)
          (relu3): ReLU(inplace=True)
        )
        (4): Bottleneck(
          (conv1): Conv2d(2560, 640, kernel_size=(1, 1), stride=(1, 1), bias=False)
          (bn1): BatchNorm2d(640, eps=1e-05, momentum=0.1, affine=True, track_running_stats=True)
          (relu1): ReLU(inplace=True)
          (conv2): Conv2d(640, 640, kernel_size=(3, 3), stride=(1, 1), padding=(1, 1), bias=False)
          (bn2): BatchNorm2d(640, eps=1e-05, momentum=0.1, affine=True, track_running_stats=True)
          (relu2): ReLU(inplace=True)
          (avgpool): Identity()
          (conv3): Conv2d(640, 2560, kernel_size=(1, 1), stride=(1, 1), bias=False)
          (bn3): BatchNorm2d(2560, eps=1e-05, momentum=0.1, affine=True, track_running_stats=True)
          (relu3): ReLU(inplace=True)
        )
        (5): Bottleneck(
          (conv1): Conv2d(2560, 640, kernel_size=(1, 1), stride=(1, 1), bias=False)
          (bn1): BatchNorm2d(640, eps=1e-05, momentum=0.1, affine=True, track_running_stats=True)
          (relu1): ReLU(inplace=True)
          (conv2): Conv2d(640, 640, kernel_size=(3, 3), stride=(1, 1), padding=(1, 1), bias=False)
          (bn2): BatchNorm2d(640, eps=1e-05, momentum=0.1, affine=True, track_running_stats=True)
          (relu2): ReLU(inplace=True)
          (avgpool): Identity()
          (conv3): Conv2d(640, 2560, kernel_size=(1, 1), stride=(1, 1), bias=False)
          (bn3): BatchNorm2d(2560, eps=1e-05, momentum=0.1, affine=True, track_running_stats=True)
          (relu3): ReLU(inplace=True)
        )
      )
      (attnpool): AttentionPool2d(
        (k_proj): Linear(in_features=2560, out_features=2560, bias=True)
        (q_proj): Linear(in_features=2560, out_features=2560, bias=True)
        (v_proj): Linear(in_features=2560, out_features=2560, bias=True)
        (c_proj): Linear(in_features=2560, out_features=640, bias=True)
      )
    )
    (transformer): Transformer(
      (resblocks): Sequential(
        (0): ResidualAttentionBlock(
          (attn): MultiheadAttention(
            (out_proj): NonDynamicallyQuantizableLinear(in_features=640, out_features=640, bias=True)
          )
          (ln_1): LayerNorm((640,), eps=1e-05, elementwise_affine=True)
          (mlp): Sequential(
            (c_fc): Linear(in_features=640, out_features=2560, bias=True)
            (gelu): QuickGELU()
            (c_proj): Linear(in_features=2560, out_features=640, bias=True)
          )
          (ln_2): LayerNorm((640,), eps=1e-05, elementwise_affine=True)
        )
        (1): ResidualAttentionBlock(
          (attn): MultiheadAttention(
            (out_proj): NonDynamicallyQuantizableLinear(in_features=640, out_features=640, bias=True)
          )
          (ln_1): LayerNorm((640,), eps=1e-05, elementwise_affine=True)
          (mlp): Sequential(
            (c_fc): Linear(in_features=640, out_features=2560, bias=True)
            (gelu): QuickGELU()
            (c_proj): Linear(in_features=2560, out_features=640, bias=True)
          )
          (ln_2): LayerNorm((640,), eps=1e-05, elementwise_affine=True)
        )
        (2): ResidualAttentionBlock(
          (attn): MultiheadAttention(
            (out_proj): NonDynamicallyQuantizableLinear(in_features=640, out_features=640, bias=True)
          )
          (ln_1): LayerNorm((640,), eps=1e-05, elementwise_affine=True)
          (mlp): Sequential(
            (c_fc): Linear(in_features=640, out_features=2560, bias=True)
            (gelu): QuickGELU()
            (c_proj): Linear(in_features=2560, out_features=640, bias=True)
          )
          (ln_2): LayerNorm((640,), eps=1e-05, elementwise_affine=True)
        )
        (3): ResidualAttentionBlock(
          (attn): MultiheadAttention(
            (out_proj): NonDynamicallyQuantizableLinear(in_features=640, out_features=640, bias=True)
          )
          (ln_1): LayerNorm((640,), eps=1e-05, elementwise_affine=True)
          (mlp): Sequential(
            (c_fc): Linear(in_features=640, out_features=2560, bias=True)
            (gelu): QuickGELU()
            (c_proj): Linear(in_features=2560, out_features=640, bias=True)
          )
          (ln_2): LayerNorm((640,), eps=1e-05, elementwise_affine=True)
        )
        (4): ResidualAttentionBlock(
          (attn): MultiheadAttention(
            (out_proj): NonDynamicallyQuantizableLinear(in_features=640, out_features=640, bias=True)
          )
          (ln_1): LayerNorm((640,), eps=1e-05, elementwise_affine=True)
          (mlp): Sequential(
            (c_fc): Linear(in_features=640, out_features=2560, bias=True)
            (gelu): QuickGELU()
            (c_proj): Linear(in_features=2560, out_features=640, bias=True)
          )
          (ln_2): LayerNorm((640,), eps=1e-05, elementwise_affine=True)
        )
        (5): ResidualAttentionBlock(
          (attn): MultiheadAttention(
            (out_proj): NonDynamicallyQuantizableLinear(in_features=640, out_features=640, bias=True)
          )
          (ln_1): LayerNorm((640,), eps=1e-05, elementwise_affine=True)
          (mlp): Sequential(
            (c_fc): Linear(in_features=640, out_features=2560, bias=True)
            (gelu): QuickGELU()
            (c_proj): Linear(in_features=2560, out_features=640, bias=True)
          )
          (ln_2): LayerNorm((640,), eps=1e-05, elementwise_affine=True)
        )
        (6): ResidualAttentionBlock(
          (attn): MultiheadAttention(
            (out_proj): NonDynamicallyQuantizableLinear(in_features=640, out_features=640, bias=True)
          )
          (ln_1): LayerNorm((640,), eps=1e-05, elementwise_affine=True)
          (mlp): Sequential(
            (c_fc): Linear(in_features=640, out_features=2560, bias=True)
            (gelu): QuickGELU()
            (c_proj): Linear(in_features=2560, out_features=640, bias=True)
          )
          (ln_2): LayerNorm((640,), eps=1e-05, elementwise_affine=True)
        )
        (7): ResidualAttentionBlock(
          (attn): MultiheadAttention(
            (out_proj): NonDynamicallyQuantizableLinear(in_features=640, out_features=640, bias=True)
          )
          (ln_1): LayerNorm((640,), eps=1e-05, elementwise_affine=True)
          (mlp): Sequential(
            (c_fc): Linear(in_features=640, out_features=2560, bias=True)
            (gelu): QuickGELU()
            (c_proj): Linear(in_features=2560, out_features=640, bias=True)
          )
          (ln_2): LayerNorm((640,), eps=1e-05, elementwise_affine=True)
        )
        (8): ResidualAttentionBlock(
          (attn): MultiheadAttention(
            (out_proj): NonDynamicallyQuantizableLinear(in_features=640, out_features=640, bias=True)
          )
          (ln_1): LayerNorm((640,), eps=1e-05, elementwise_affine=True)
          (mlp): Sequential(
            (c_fc): Linear(in_features=640, out_features=2560, bias=True)
            (gelu): QuickGELU()
            (c_proj): Linear(in_features=2560, out_features=640, bias=True)
          )
          (ln_2): LayerNorm((640,), eps=1e-05, elementwise_affine=True)
        )
        (9): ResidualAttentionBlock(
          (attn): MultiheadAttention(
            (out_proj): NonDynamicallyQuantizableLinear(in_features=640, out_features=640, bias=True)
          )
          (ln_1): LayerNorm((640,), eps=1e-05, elementwise_affine=True)
          (mlp): Sequential(
            (c_fc): Linear(in_features=640, out_features=2560, bias=True)
            (gelu): QuickGELU()
            (c_proj): Linear(in_features=2560, out_features=640, bias=True)
          )
          (ln_2): LayerNorm((640,), eps=1e-05, elementwise_affine=True)
        )
        (10): ResidualAttentionBlock(
          (attn): MultiheadAttention(
            (out_proj): NonDynamicallyQuantizableLinear(in_features=640, out_features=640, bias=True)
          )
          (ln_1): LayerNorm((640,), eps=1e-05, elementwise_affine=True)
          (mlp): Sequential(
            (c_fc): Linear(in_features=640, out_features=2560, bias=True)
            (gelu): QuickGELU()
            (c_proj): Linear(in_features=2560, out_features=640, bias=True)
          )
          (ln_2): LayerNorm((640,), eps=1e-05, elementwise_affine=True)
        )
        (11): ResidualAttentionBlock(
          (attn): MultiheadAttention(
            (out_proj): NonDynamicallyQuantizableLinear(in_features=640, out_features=640, bias=True)
          )
          (ln_1): LayerNorm((640,), eps=1e-05, elementwise_affine=True)
          (mlp): Sequential(
            (c_fc): Linear(in_features=640, out_features=2560, bias=True)
            (gelu): QuickGELU()
            (c_proj): Linear(in_features=2560, out_features=640, bias=True)
          )
          (ln_2): LayerNorm((640,), eps=1e-05, elementwise_affine=True)
        )
      )
    )
    (token_embedding): Embedding(49408, 640)
    (ln_final): LayerNorm((640,), eps=1e-05, elementwise_affine=True)
  )
)
Fri, 12 May 2023 22:28:55 INFO -------[Epoch]:0-------
Fri, 12 May 2023 22:28:55 INFO [Train] Loss:0.075992 , Train_Acc:31.070498%
Fri, 12 May 2023 22:28:55 INFO [Train] Loss_Open:0.004557 , Loss_Close:0.004901%
Fri, 12 May 2023 22:29:00 INFO [Validate] Val_Acc:30.155210%  |  Open_ACC:2.762431%   |  Close_ACC:48.518517%
Fri, 12 May 2023 22:29:02 INFO [Result] The best acc is 30.155210% at epoch 0
…
